"backend: tensorflow\nclass_name: Sequential\nconfig:\n- class_name: Dense\n  config:\n\
  \    activation: relu\n    activity_regularizer: null\n    batch_input_shape: !!python/tuple\
  \ [null, 1288]\n    bias_constraint: null\n    bias_initializer:\n      class_name:\
  \ Zeros\n      config: {}\n    bias_regularizer: null\n    dtype: float32\n    kernel_constraint:\
  \ null\n    kernel_initializer:\n      class_name: VarianceScaling\n      config:\
  \ {distribution: uniform, mode: fan_avg, scale: 1.0, seed: null}\n    kernel_regularizer:\
  \ null\n    name: dense_441\n    trainable: true\n    units: 1000\n    use_bias:\
  \ true\n- class_name: Dropout\n  config: {name: dropout_316, noise_shape: null,\
  \ rate: 0.2, seed: null, trainable: true}\n- class_name: Dense\n  config:\n    activation:\
  \ relu\n    activity_regularizer: null\n    bias_constraint: null\n    bias_initializer:\n\
  \      class_name: Zeros\n      config: {}\n    bias_regularizer: null\n    kernel_constraint:\
  \ null\n    kernel_initializer:\n      class_name: VarianceScaling\n      config:\
  \ {distribution: uniform, mode: fan_avg, scale: 1.0, seed: null}\n    kernel_regularizer:\
  \ null\n    name: dense_442\n    trainable: true\n    units: 2000\n    use_bias:\
  \ true\n- class_name: Dropout\n  config: {name: dropout_317, noise_shape: null,\
  \ rate: 0.2, seed: null, trainable: true}\n- class_name: Dense\n  config:\n    activation:\
  \ relu\n    activity_regularizer: null\n    bias_constraint: null\n    bias_initializer:\n\
  \      class_name: Zeros\n      config: {}\n    bias_regularizer: null\n    kernel_constraint:\
  \ null\n    kernel_initializer:\n      class_name: VarianceScaling\n      config:\
  \ {distribution: uniform, mode: fan_avg, scale: 1.0, seed: null}\n    kernel_regularizer:\
  \ null\n    name: dense_443\n    trainable: true\n    units: 2000\n    use_bias:\
  \ true\n- class_name: Dropout\n  config: {name: dropout_318, noise_shape: null,\
  \ rate: 0.2, seed: null, trainable: true}\n- class_name: Dense\n  config:\n    activation:\
  \ linear\n    activity_regularizer: null\n    bias_constraint: null\n    bias_initializer:\n\
  \      class_name: Zeros\n      config: {}\n    bias_regularizer: null\n    kernel_constraint:\
  \ null\n    kernel_initializer:\n      class_name: VarianceScaling\n      config:\
  \ {distribution: uniform, mode: fan_avg, scale: 1.0, seed: null}\n    kernel_regularizer:\
  \ null\n    name: dense_444\n    trainable: true\n    units: 1000\n    use_bias:\
  \ true\nkeras_version: 2.0.9\n"
